outputs/model.pt (torch, 914105 bytes, 17 tensors)

emb.weight f4 [113, 128]
0	0x3b00666a	0.0019592294
1	0xba90ea06	-0.0011056073
2	0x3b39397a	0.0028263018
3	0xbc242974	-0.010019649
4	0x3ba0db72	0.0049089724
5	0xba6c27dc	-0.0009008625
6	0x3bc4b240	0.0060026944
7	0x3c597289	0.013271936
8	0xbb91d113	-0.0044499724
9	0x3bb8be97	0.0056379545
10	0xbc28f3b1	-0.010312007
11	0xbc5dbd7a	-0.013533944
12	0x3d0e9519	0.03481016
13	0x3b615f1d	0.0034388967
14	0x3c0e3356	0.008679232
15	0xbbe0b2d7	-0.006857257
16	0x3b4589aa	0.0030141869
17	0xb9ad3d4d	-0.00033042804
18	0x3bb57797	0.005537938
19	0xbc4de2fd	-0.012566325
20	0x3b9b19a5	0.0047332817
21	0xbc29d744	-0.010366265
22	0x3c3e1f1d	0.011604098
23	0x3d23de39	0.04000685
24	0xbd02557f	-0.031819817
25	0x3cb252bc	0.021767966
26	0x3bfc252a	0.00769486
27	0xbb9871ac	-0.0046522226
28	0xbc299d6b	-0.010352473
29	0x3d174f67	0.03694096
30	0xba64b63a	-0.00087246636
31	0xbc320f98	-0.010867976
32	0xbb916470	-0.004437022
33	0x3c92e515	0.0179315
34	0x3cf35c5b	0.029707124
35	0xbbe14606	-0.0068748025
36	0x3b6c9dfb	0.0036104906
37	0xbaafb1fd	-0.0013404485
38	0xbc0b79bf	-0.008512913
39	0xbc11a117	-0.0088885045
40	0xbb42363d	-0.002963438
41	0x3c985d6f	0.01859924
42	0xbb331384	-0.0027324865
43	0xbbd5a5fe	-0.006520032
44	0x3bda5bff	0.006663799
45	0xbc258c7f	-0.010104298
46	0xbd19f083	-0.037582885
47	0xbc1538e2	-0.0091078
48	0x3bab08be	0.005219548
49	0xbc82cf22	-0.01596791
50	0x3af34a7a	0.0018561624
51	0x3d033c55	0.03203996
52	0x3c50d5cb	0.012746285
53	0xbc7592d3	-0.014988619
54	0x3bb54c99	0.005532813
55	0xbc225993	-0.0099090515
56	0x3d003191	0.03129727
57	0xbc6a9ab3	-0.01431911
58	0x3a607117	0.00085617736
59	0x3c483dbe	0.012221752
60	0xbb4b1513	-0.0030987903
61	0xbae1b19a	-0.0017219067
62	0xbb81abd7	-0.0039572525
63	0x3beb05a2	0.0071723023
64	0xbc1a9b8a	-0.009436497
65	0x3ac8735b	0.0015293168
66	0x3b901ae0	0.004397735
67	0x3b6701e8	0.003524894
68	0x3bc2e9d1	0.0059482832
69	0x3ca5f5ab	0.020258745
70	0xbad0c502	-0.0015927854
71	0x3bb3e13f	0.005489498
72	0xbc07626f	-0.0082632145
73	0xbca9052b	-0.020632347
74	0x3c38b17f	0.011272787
75	0xbba98d6f	-0.005174331
76	0xbb78e8c2	-0.0037980531
77	0xba14abfa	-0.00056713785
78	0x3b9eaad6	0.0048421426
79	0x3c3b2d9c	0.011424448
80	0x3af31639	0.0018546052
81	0x3c4ed4a6	0.0126239415
82	0xbbdb8d38	-0.006700184
83	0x3ac4eb67	0.0015023769
84	0x3b1e4f15	0.0024156023
85	0xbba86d6d	-0.0051399977
86	0x3a9580c7	0.0011406176
87	0xbcc08a09	-0.02350332
88	0x3bb5471c	0.0055321585
89	0xba3fe0c2	-0.00073195633
90	0xbcb17b3b	-0.021665206
91	0xbc5bf1af	-0.013424321
92	0x3ac10f40	0.0014729276
93	0xbbcb6b39	-0.0062078503
94	0xbb4454df	-0.0029957814
95	0xbbee16f2	-0.007265919
96	0x3b6762e6	0.003530675
97	0x3b1a6167	0.0023556591
98	0xbbb94dac	-0.005655011
99	0xbbbe62e6	-0.0058101295
100	0x3b1159c6	0.0022178753
101	0xbbcbe872	-0.006222778
102	0x3b637e6d	0.0034712807
103	0xbb066aaf	-0.0020510366
104	0xbad8fbc4	-0.0016554524
105	0xba157954	-0.0005701978
106	0xbc590465	-0.013245677
107	0xba0a3088	-0.0005271514
108	0x3ceed240	0.02915299
109	0xbb26cf4b	-0.0025453146
110	0x3c4fcbfd	0.012682912
111	0x3bf30aa8	0.007417042
112	0xbc643dcc	-0.013930749
113	0x3aab1446	0.0013052307
114	0x3ce00134	0.027344324
115	0x3be8d8e9	0.007105936
116	0xbcfd995c	-0.030956917
117	0xbcaa6b4c	-0.020803116
118	0x3c13a973	0.009012568
119	0xbc0c03f7	-0.008545867
120	0xbc15f063	-0.009151551
121	0xb91a428e	-0.00014711378
122	0xbbb4b315	-0.0055145123
123	0xbcadf295	-0.021233836
124	0xbac37d83	-0.0014914725
125	0x3c0219e1	0.00794074
126	0xbbea3cff	-0.0071483846
127	0x3b0ddbb2	0.0021645841
128	0x3b35134c	0.002762991
129	0x3ca560f7	0.020187838
130	0x3c17419b	0.00923195
131	0x3cb139fe	0.021634098
132	0xbc938a7c	-0.01801037
133	0xbb5d6390	-0.0033781268
134	0xbcaaa175	-0.020828942
135	0xbc0fb07c	-0.0087701045
136	0x3c785b55	0.015158494
137	0xbc05741c	-0.008145358
138	0xbb794f05	-0.0038041484
139	0x3c906d48	0.017630234
140	0x3b8447a2	0.0040368596
141	0xbbfb9524	-0.007677691
142	0xbbaaddc1	-0.0052144234
143	0x3b13d029	0.0022554493
144	0x3c6efd2b	0.014586727
145	0x3c74ebc6	0.014948791
146	0x3b40a472	0.0029394892
147	0x3cd0a3a1	0.02546865
148	0xbb859a72	-0.004077249
149	0xbc351f49	-0.011054822
150	0x3c367a26	0.011137521
151	0x3cec0a10	0.028813392
152	0xbaec4eab	-0.0018028816
153	0xbd23554f	-0.03987628
154	0x3ba6790c	0.005080348
155	0xbc12315d	-0.008922902
156	0xbc65f1b5	-0.014034678
157	0xbcafe3ab	-0.021470865
158	0xbb3306a4	-0.002731719
159	0xbc709ce8	-0.014685847
160	0x3c24d100	0.010059595
161	0x3c1a3bb3	0.009413647
162	0x3d24eaba	0.040262915
163	0xbbc33b04	-0.005957963
164	0xbcded8bd	-0.027202958
165	0xbb04f60d	-0.002028826
166	0x3bd66389	0.0065426272
167	0xbc95b39b	-0.01827412
168	0x3bb8663b	0.005627421
169	0x3c5f7101	0.013637782
170	0x3a81f4c7	0.0009914868
171	0xbc9d90de	-0.019234117
172	0x3ba940b1	0.0051651825
173	0xbcaa2d6a	-0.020773608
174	0xbcd99ac2	-0.026563052
175	0x3b7a566c	0.0038198484
176	0x3c3a06b0	0.0113541335
177	0xba6f0381	-0.00091176486
178	0x3b1d4412	0.0023996872
179	0x3c73e012	0.0148849655
180	0x3c7660a9	0.015037694
181	0xbc6e2c48	-0.014536925
182	0xb936b684	-0.00017424865
183	0xbc52926f	-0.012852295
184	0x3b974b8c	0.00461716
185	0x3b3a8a7e	0.0028463895
186	0xbbc34c2b	-0.0059600077
187	0x3bab54b1	0.005228602
188	0xbbeb724e	-0.007185257
189	0xbb18b3e8	-0.0023300592
190	0xbbdb8a5a	-0.0066998424
191	0x3cd83bb4	0.026395656
192	0xbca55ac9	-0.020184891
193	0x3b81e640	0.0039642155
194	0xbb69bbff	-0.0035665033
195	0x3ca0709d	0.019584948
196	0x3c2f3c43	0.01069552
197	0x3d217d7a	0.039426304
198	0x3c836bdd	0.016042644
199	0x3b0faaa9	0.002192179
200	0xbc501d00	-0.012702227
201	0xbb5d5629	-0.003377328
202	0x3c66274b	0.014047454
203	0xbbc8ac5e	-0.0061240634
204	0xbaeee755	-0.0018226901
205	0xbc88916e	-0.016670909
206	0x3c1d8f29	0.009616652
207	0x3c44fb4a	0.012022803
208	0x3b56cc8f	0.0032775735
209	0x3c444cc1	0.01198119
210	0x3a9b41e6	0.0011845201
211	0xbbad1a82	-0.005282701
212	0xbc21be5b	-0.009872044
213	0xbb9a0124	-0.004699843
214	0x3bd68c37	0.0065474766
215	0xbca82903	-0.020527368
216	0xbb4f1bb6	-0.003160221
217	0x3c448cad	0.01199643
218	0x3bf37b2e	0.0074304556
219	0x3ae41ad4	0.0017403015
220	0x3cb1d612	0.021708522
221	0xbc100328	-0.008789815
222	0x3ab9bae0	0.0014170073
223	0xbc3c0f80	-0.011478305
224	0x3ba4c071	0.0050278236
225	0x3a95f074	0.0011439458
226	0x39cbabde	0.00038847228
227	0x3c9646f3	0.018344378
228	0xbc16f1e8	-0.009212948
229	0x3d3bfe8f	0.045897063
230	0xbc1e17b3	-0.009649205
231	0x3b896a18	0.0041935556
232	0xbc1cc9c9	-0.009569594
233	0xbbf20c0d	-0.0073866905
234	0x3c4c2725	0.012460505
235	0xbc15a3e0	-0.009133309
236	0x3c7d2efb	0.015453096
237	0x3be75a8f	0.007060356
238	0x3a7984ef	0.0009518405
239	0xbcd7cf49	-0.026343958
240	0xba113570	-0.0005539274
241	0x3ba0ee9d	0.0049112574
242	0x3c90edd0	0.017691523
243	0xbbb461b0	-0.0055048093
244	0xbbbb6537	-0.005718853
245	0xbcc8d499	-0.024515437
246	0xbbf1e6e5	-0.007382261
247	0xbcd0682b	-0.025440296
248	0xbc80771e	-0.0156818
249	0xbb5a7359	-0.0033332913
250	0xbc9366ed	-0.017993415
251	0xbaaa6641	-0.0013000445
252	0xbb9a3071	-0.0047054817
253	0x3c3723e5	0.0111779915
254	0xbc955fff	-0.018234251
255	0x3c511f51	0.012763814

pos.weight f4 [3, 128]
0	0xbbb364ab	-0.005474647
1	0x3aefa821	0.0018284359
2	0xbba18d20	-0.0049301535
3	0xb981fa0d	-0.000247911
4	0x3aabc8e8	0.0013106139
5	0x3a0c5c70	0.00053543504
6	0x3b337a1f	0.0027386022
7	0xbb0ba237	-0.0021306404
8	0x3b970cb1	0.004609667
9	0x3b4b50f8	0.0031023603
10	0x3c0eaedc	0.008708682
11	0x3bcb7fde	0.0062103113
12	0x3b52dc5b	0.00321748
13	0xbb558d5c	-0.0032585477
14	0x3b939233	0.0045035123
15	0xbb963c46	-0.004584822
16	0xbb8e56b7	-0.0043438333
17	0xbbf03990	-0.0073310807
18	0x3a2e0563	0.0006638376
19	0xbab708c9	-0.001396441
20	0x3c05f436	0.0081759
21	0xbb7478c9	-0.003730344
22	0xbc079bd0	-0.008276895
23	0x3b013a80	0.0019718707
24	0xbb1d061b	-0.0023959938
25	0x3b75eef5	0.0037526463
26	0x3b752af6	0.003740964
27	0x3a050760	0.00050746463
28	0x3bea1d62	0.007144616
29	0xbaccf0fc	-0.0015635784
30	0xbb27a241	-0.0025578889
31	0x3c228ce5	0.009921287
32	0x3b3b2979	0.0028558655
33	0x3b01ffd9	0.0019836335
34	0xbbf02805	-0.0073289894
35	0x3be98cb8	0.0071273707
36	0x3b45a6da	0.0030159266
37	0xbb90083d	-0.0043955133
38	0xbac0382e	-0.001466518
39	0x3bb02c4c	0.0053763743
40	0xbba01a28	-0.0048859306
41	0xba69f64d	-0.00089249463
42	0xbb783780	-0.0037874877
43	0x3ba199ba	0.0049316557
44	0xbbc31adb	-0.005954129
45	0xbb974a51	-0.0046170135
46	0x3bbaf389	0.005705301
47	0xbb89810a	-0.004196291
48	0xbb87560d	-0.004130131
49	0x3c07ac03	0.008280757
50	0xbbfbd78f	-0.0076856087
51	0x3b406644	0.002935783
52	0xbaada293	-0.0013247303
53	0x38bc8a25	8.99027e-05
54	0x3baadefc	0.00521457
55	0x3ba872cb	0.0051406375
56	0x3ba8b9a3	0.0051490827
57	0x3b109c8c	0.0022065965
58	0x3bb59354	0.0055412445
59	0x39aac463	0.00032571246
60	0xbb800e8a	-0.003907983
61	0x3c034745	0.008012597
62	0x3c077f22	0.008270057
63	0x3a99f7d9	0.0011746838
64	0x3bb99349	0.0056633097
65	0xbbf445b5	-0.007454599
66	0x3b8d2df6	0.0043084575
67	0x39ac6bb4	0.00032886642
68	0x3ba9df51	0.005184092
69	0x3b475bce	0.003041971
70	0xbbadb0f9	-0.005300638
71	0xbb49e409	-0.0030806086
72	0x3bff1705	0.0077847266
73	0xbc149bc0	-0.009070337
74	0xbbb24ecf	-0.0054415236
75	0xbb9525a2	-0.0045516053
76	0x3bd2b458	0.00643019
77	0x3bd7c9d4	0.006585339
78	0xbc0544e3	-0.0081341
79	0xbc1d7114	-0.009609479
80	0xbbfffeb5	-0.007812346
81	0xbc05d341	-0.008168043
82	0x39ea112c	0.00044644752
83	0xbbb4ac11	-0.005513676
84	0xbacc07d4	-0.0015566298
85	0x3bc925ff	0.0061385627
86	0x3bbf25e7	0.0058333757
87	0xbaf26f2c	-0.0018496267
88	0x3a9ecf25	0.0012116177
89	0xbb634808	-0.0034680385
90	0x3b015048	0.001973169
91	0x3ba53e9b	0.0050428635
92	0xbbb68dda	-0.0055711092
93	0xbb63abc1	-0.0034739824
94	0xbbc58be2	-0.006028638
95	0x3c35d108	0.0110972
96	0xbb8a3abe	-0.0042184284
97	0x3badd114	0.005304465
98	0x3bc9037f	0.00613445
99	0x3b557643	0.003257171
100	0x3ba2b0a6	0.004964906
101	0x392ebfb1	0.00016665344
102	0x3b8b9acf	0.004260398
103	0x3bc09f79	0.0058783856
104	0x3bf7476e	0.007546357
105	0xbb93f2ae	-0.0045150137
106	0xbb09175c	-0.0020918464
107	0xbb9783c5	-0.0046238624
108	0xbb146076	-0.0022640503
109	0x3a37dd71	0.00070138933
110	0xbba6504b	-0.0050754896
111	0x3bfca225	0.007709759
112	0x3bf8a946	0.0075885383
113	0x3b9abe0e	0.0047223633
114	0x3b967268	0.004591275
115	0xbab1b599	-0.0013558149
116	0xbb08df58	-0.0020885076
117	0x3b20bdc5	0.0024527174
118	0xbb5f8f36	-0.003411246
119	0x3bf77a62	0.007552431
120	0x3bc14478	0.0058980547
121	0x3c009004	0.007846836
122	0xbae82ed7	-0.0017714155
123	0x3a693b23	0.00088970567
124	0x3be6ff26	0.007049459
125	0x3b96cbe6	0.0046019433
126	0xbb376730	-0.0027985089
127	0x3b4536aa	0.0030092397
128	0xbbc75fe6	-0.00608443
129	0x3a07eda9	0.00051852554
130	0xbb6bda82	-0.0035988395
131	0xbb8d3ab0	-0.0043099746
132	0x3b45224f	0.0030080264
133	0x39885922	0.0002600635
134	0xbafad862	-0.0019137973
135	0xbb6e0723	-0.0036320172
136	0x3aaffcad	0.0013426744
137	0x3b4d299e	0.0031305323
138	0x3bfaabd1	0.0076498766
139	0x3b963391	0.004583784
140	0x3b041956	0.0020156703
141	0xbbecf7a7	-0.007231671
142	0xb8d3f661	-0.00010107156
143	0xbbbcf79e	-0.005766823
144	0xbaf74875	-0.0018866198
145	0xbbd1f29f	-0.0064070965
146	0x395acc8b	0.00020866298
147	0xbacd768f	-0.0015675592
148	0x3b459d86	0.0030153706
149	0xbb9beaa1	-0.0047581946
150	0xbc09228e	-0.008370055
151	0x3abb2553	0.0014278091
152	0xbb9f7c42	-0.0048671076
153	0x3b6f87c7	0.0036549435
154	0x3a545cc7	0.0008100983
155	0x3b5ff93a	0.003417565
156	0x3bb4c201	0.005516291
157	0xbad9691c	-0.0016587111
158	0xbaa0f3d8	-0.0012279702
159	0x3c0517cb	0.0081233485
160	0x3b062fae	0.0020475197
161	0x3b61fc00	0.003448248
162	0xbbf3d326	-0.0074409423
163	0x3bc8ea8a	0.006131475
164	0x3b1fde86	0.002439411
165	0xbbaceae6	-0.0052770255
166	0xbbd13b3d	-0.0063852356
167	0x3ba332aa	0.004980405
168	0xbb406f25	-0.0029363122
169	0xba1ecbd6	-0.00060575956
170	0xbb31fa0e	-0.00271571
171	0x3b93c4e0	0.0045095533
172	0xbbcf33be	-0.006323307
173	0xbb892c0d	-0.0041861595
174	0x3b3c39d2	0.0028720987
175	0xbbbd111d	-0.0057698623
176	0xbbd28497	-0.0064244973
177	0x3bce2ffa	0.0062923403
178	0xbc06a639	-0.0082183415
179	0xba4d24fb	-0.000782564
180	0xbb00eff1	-0.0019674266
181	0xb9978500	-0.00028900057
182	0x3b455bcd	0.0030114532
183	0x3b6a8546	0.0035785004
184	0x3b770383	0.0037691302
185	0x3a5e4a1f	0.0008479673
186	0x3b965a8a	0.00458843
187	0x3b11b78a	0.0022234642
188	0xbba3271c	-0.0049790274
189	0x3bef07ff	0.0072946544
190	0x3be7cecf	0.007074214
191	0xbaeea677	-0.0018207569
192	0x3b172e36	0.0023068315
193	0xbc14a035	-0.009071399
194	0xba871010	-0.001030447
195	0xbb854da9	-0.0040680957
196	0x3b1bb638	0.0023759734
197	0x3b782678	0.0037864726
198	0xbbd5c295	-0.00652344
199	0xbb934ba9	-0.0044951034
200	0x3bb5b6ab	0.0055454574
201	0xbbf28db8	-0.007402148
202	0xbbbfe8a5	-0.005856591
203	0xbbc25974	-0.005931074
204	0x3b297034	0.0025854232
205	0x3b0bf81e	0.0021357606
206	0xbc0cc1f4	-0.008591164
207	0xbc3412fa	-0.0109908525
208	0xbc0ae605	-0.0084776925
209	0xbc0aaf01	-0.008464576
210	0xbbd5a767	-0.0065202
211	0xbbbc3ed7	-0.005744796
212	0xbae12696	-0.0017177637
213	0x3b912522	0.0044294754
214	0x3b176118	0.0023098644
215	0xbb5b13cc	-0.0033428548
216	0x3bacbbd2	0.0052714134
217	0xbc01ff66	-0.007934427
218	0x3afa1720	0.0019080378
219	0x38c78351	9.513519e-05
220	0xbbb2cd2e	-0.005456588
221	0xbbc79189	-0.006090347
222	0xbb9d11b0	-0.0047933683
223	0x3c296624	0.010339294
224	0xbbf85bf1	-0.0075793196
225	0x3b06f005	0.002058984
226	0x3b7f9ba9	0.0039002693
227	0x3af187ae	0.0018427277
228	0x3a61e68e	0.0008617424
229	0x3acdee0e	0.0015711205
230	0x3ad59300	0.001629442
231	0x3b848a07	0.0040447745
232	0x3bdca122	0.0067330757
233	0xbba0700f	-0.004896171
234	0xbb23f26c	-0.002501632
235	0xbbe203c6	-0.0068974225
236	0xbb568d65	-0.0032738086
237	0xbb87f302	-0.004148842
238	0xbbb5c6e4	-0.0055473913
239	0x3bdc9174	0.0067312066
240	0x3bd1fe97	0.0064085233
241	0x3b603fdf	0.0034217758
242	0x3a9038a3	0.0011003207
243	0xbbb1116d	-0.0054036886
244	0xbb255c4d	-0.0025232018
245	0x3b36ca61	0.0027891623
246	0xbb94db71	-0.004542761
247	0x3bc0fb87	0.0058893594
248	0x3bcc8bd0	0.006242253
249	0x3bd3a409	0.0064587635
250	0xba82d058	-0.0009980304
251	0xba8cbf29	-0.0010738123
252	0x3b84e7d3	0.004055956
253	0x3b9f5bbe	0.0048632314
254	0xbbc3309e	-0.0059567234
255	0xbac05cff	-0.0014676152

layers.0.WQ f4 [4, 128, 32]
0	0xbd9d6e5c	-0.07687065
1	0x3da2d8c1	0.07951499
2	0xbd9f1f7d	-0.07769678
3	0x3da10071	0.07861412
4	0xbda00532	-0.07813491
5	0xbda1dba0	-0.07903218
6	0xbda40b6a	-0.080099896
7	0x3da15da7	0.07879191
8	0x3d9faf2d	0.07797084
9	0xbda2765b	-0.07932731
10	0x3da156fe	0.078779206
11	0xbd9ead87	-0.077479415
12	0x3d9da661	0.0769775
13	0xbda0c3e0	-0.0784986
14	0x3d9f24b4	0.077706724
15	0x3da238ff	0.079210274
16	0x3d9e2478	0.077217996
17	0x3d9d8a75	0.07692424
18	0x3da10794	0.078627735
19	0x3da028fc	0.07820317
20	0xbda404f8	-0.0800876
21	0xbda1bec1	-0.078977115
22	0xbda1fdf7	-0.07909768
23	0x3d9eb147	0.07748657
24	0x3d9cc3ca	0.07654531
25	0xbda30aca	-0.07961042
26	0x3d9ee8c1	0.07759238
27	0xbd9c7edf	-0.07641386
28	0xbd9f72bd	-0.077855565
29	0xbda054bd	-0.078286625
30	0x3d9f0b79	0.0776586
31	0xbd9fee5f	-0.078091376
32	0xbdae580c	-0.08512887
33	0x3dae77f5	0.08518974
34	0xbda9635f	-0.08270907
35	0x3daaa58e	0.08332358
36	0xbdac3893	-0.08409228
37	0xbdaacd3f	-0.08339929
38	0xbdac8071	-0.08422936
39	0x3daab1b7	0.08334678
40	0x3da9c150	0.082888246
41	0xbdadfad3	-0.084951065
42	0x3da869fd	0.08223341
43	0xbdaa2f9a	-0.083098605
44	0x3dac8e76	0.0842561
45	0xbdab0cf6	-0.083520815
46	0x3da7f391	0.082007535
47	0x3dab1055	0.083527245
48	0x3dab7047	0.083710246
49	0x3dac746a	0.08420642
50	0x3da6fa14	0.08153167
51	0x3dabe39d	0.08393023
52	0xbdaf3854	-0.085556656
53	0xbdabe10f	-0.08392536
54	0xbdaf3c5d	-0.08556435
55	0x3da85e6e	0.08221136
56	0x3dab6efc	0.08370778
57	0xbdabeaaf	-0.08394372
58	0x3da9f76d	0.08299146
59	0xbda98c6e	-0.08278738
60	0xbdacf160	-0.08444476
61	0xbdaca6ca	-0.0843025
62	0x3dac030e	0.0839902
63	0xbdad477e	-0.08460902
64	0x3da2e703	0.07954218
65	0xbda5a27e	-0.080876336
66	0x3da1b5c4	0.07895997
67	0xbda1d1ed	-0.07901368
68	0x3da6de1f	0.08147835
69	0x3da1a5e6	0.07892971
70	0x3da3b062	0.07992627
71	0xbda3e2b5	-0.08002225
72	0xbda25e0b	-0.079280935
73	0x3da2cc41	0.079491146
74	0xbda3c8cc	-0.07997283
75	0x3da2c254	0.079472214
76	0xbda0721b	-0.07834264
77	0x3da3e53e	0.08002709
78	0xbd9f3a91	-0.077748425
79	0xbda2177d	-0.07914636
80	0xbda0142d	-0.07816348
81	0xbda18a9e	-0.07887767
82	0xbda369cc	-0.079791635
83	0xbd9ffd86	-0.07812028
84	0x3da55a2b	0.08073839
85	0x3da4984b	0.0803686
86	0x3da5aeca	0.08089979
87	0xbd9eaf62	-0.07748295
88	0xbd9f377d	-0.077742554
89	0x3da5b92e	0.08091961
90	0xbda2196f	-0.07915007
91	0x3d9e966b	0.07743534
92	0x3da2a581	0.079417236
93	0x3da2e60d	0.07954035
94	0xbd9fa759	-0.07795591
95	0x3da22613	0.07917418
96	0x3da9ad0a	0.08284958
97	0xbdb1dde9	-0.08684904
98	0x3da3ac5c	0.07991859
99	0xbda62b94	-0.081137806
100	0x3da75f75	0.08172504
101	0x3da92401	0.0825882
102	0x3daadc73	0.083428286
103	0xbda6bd73	-0.08141603
104	0xbda76ad3	-0.08174672
105	0x3da96ecc	0.08273086
106	0xbda8523d	-0.08218811
107	0x3da99792	0.08280863
108	0xbda69ffa	-0.08135982
109	0x3da71ce7	0.081598096
110	0xbda86012	-0.08221449
111	0xbda89c35	-0.08232919
112	0xbda79236	-0.081821844
113	0xbda6ac9c	-0.081383914
114	0xbda75ea8	-0.08172351
115	0xbda4c63a	-0.08045621
116	0x3dad9f36	0.08477633
117	0x3da93fb3	0.08264103
118	0x3da8ec64	0.08248213
119	0xbda7fbe7	-0.082023434
120	0xbda9da18	-0.08293551
121	0x3da5a3af	0.08087861
122	0xbda9cf13	-0.082914494
123	0x3da5eca8	0.08101779
124	0x3da7aa4b	0.08186778
125	0x3da9292c	0.08259806
126	0xbda7b319	-0.08188457
127	0x3daae5d5	0.08344618
128	0x3da4a7b6	0.08039801
129	0xbda6b623	-0.081402086
130	0x3da223ef	0.0791701
131	0xbda53569	-0.08066828
132	0x3da66465	0.081246175
133	0x3da4351e	0.08017944
134	0x3da31d63	0.079645894
135	0xbda28253	-0.079350136
136	0xbda3fe04	-0.08007434
137	0x3da6755a	0.08127852
138	0xbda44675	-0.08021251
139	0x3daa7c73	0.08324518
140	0xbda13ea2	-0.078732744
141	0x3da2a568	0.07941705
142	0xbda25bcd	-0.07927666
143	0xbda40cb1	-0.08010233
144	0xbda0ebe8	-0.078574955
145	0xbda0cdd4	-0.078517586
146	0xbda3fdb0	-0.080073714
147	0xbda3e930	-0.08003461
148	0x3da3c98c	0.079974264
149	0x3da2bbfe	0.07946013
150	0x3da5e4b6	0.08100264
151	0xbda2877f	-0.07936
152	0xbda3921c	-0.079868525
153	0x3da51904	0.08061412
154	0xbda2ca4e	-0.07948743
155	0x3da01ee2	0.078183904
156	0x3da57407	0.08078771
157	0x3da5d4cf	0.08097231
158	0xbda51143	-0.08059933
159	0x3da55e3d	0.08074615
160	0x3da3a6de	0.07990812
161	0xbda4c144	-0.08044675
162	0x3da19e3a	0.078915074
163	0xbda6639a	-0.08124466
164	0x3da4f3ed	0.08054338
165	0x3da14004	0.07873538
166	0x3da6c9f2	0.08143987
167	0xbd9e1ed5	-0.077207245
168	0xbda827ea	-0.08210738
169	0x3da69b0e	0.08135043
170	0xbda1d33e	-0.079016194
171	0x3da1eb70	0.07906234
172	0xbd9ff6a4	-0.07810715
173	0x3da29c91	0.07940019
174	0xbd9ef738	-0.07761997
175	0xbda41775	-0.080122866
176	0xbda2fb56	-0.07958095
177	0xbda56b76	-0.08077137
178	0xbda0b143	-0.0784631
179	0xbda3841d	-0.07984183
180	0x3da4b92e	0.08043133
181	0x3da4a728	0.08039695
182	0x3da6316e	0.08114897
183	0xbda3e63f	-0.080029
184	0xbda1ad4a	-0.078943804
185	0x3da67029	0.081268616
186	0xbda1c069	-0.078980274
187	0x3d9f1b9b	0.07768937
188	0x3da6d67c	0.081463784
189	0x3da293e9	0.07938368
190	0xbda4dc29	-0.08049805
191	0x3da46b2e	0.080282554
192	0x3db55dc8	0.08855778
193	0xbdb7d554	-0.08976236
194	0x3db11bda	0.086478904
195	0xbdb9e664	-0.09077147
196	0x3db23a2a	0.087025
197	0x3db55a5d	0.08855126
198	0x3db73534	0.089456946
199	0xbdb5f73c	-0.08885047
200	0xbdb8aae7	-0.09016972
201	0x3db7e9a2	0.08980109
202	0xbdb6be8b	-0.08923062
203	0x3db87751	0.09007133
204	0xbdb3ea59	-0.08784933
205	0x3db46f23	0.0881026
206	0xbdb3513e	-0.0875573
207	0xbdb6551c	-0.08902952
208	0xbdb7b3e9	-0.08969862
209	0xbdb62f57	-0.08895748
210	0xbdb56cd2	-0.088586465
211	0xbdb465b6	-0.08808462
212	0x3dba5dcd	0.09099922
213	0x3db6fac1	0.08934546
214	0x3db62c8f	0.088952176
215	0xbdb436f5	-0.08799545
216	0xbdb5627b	-0.08856674
217	0x3db74077	0.089478426
218	0xbdb2e36a	-0.08734782
219	0x3db38691	0.08765901
220	0x3db572ea	0.08859809
221	0x3db7d21b	0.08975621
222	0xbdb8efcc	-0.090301126
223	0x3db6f99b	0.08934327
224	0x3da97654	0.082745224
225	0xbdad7007	-0.08468633
226	0x3da8fbf6	0.08251183
227	0xbdabd0d9	-0.08389444
228	0x3dab5a07	0.08366781
229	0x3da85b49	0.08220536
230	0x3dacb0c9	0.084321566
231	0xbdacbab4	-0.08434048
232	0xbda8884b	-0.08229121
233	0x3dac0bf1	0.08400715
234	0xbdaea37c	-0.08527276
235	0x3dad032c	0.084478706
236	0xbda8698b	-0.08223256
237	0x3da7dfc9	0.081969805
238	0xbda55d70	-0.080744624
239	0xbda9c4cb	-0.082894884
240	0xbda7455c	-0.08167526
241	0xbdab04d1	-0.08350528
242	0xbdabda38	-0.08391231
243	0xbda9c070	-0.08288658
244	0x3dadc329	0.084844895
245	0x3dabf904	0.08397105
246	0x3dabdaf5	0.08391372
247	0xbdab23ce	-0.083564386
248	0xbda9508b	-0.082673155
249	0x3dab8f0e	0.08376895
250	0xbdabd976	-0.08391087
251	0x3dac3978	0.08409399
252	0x3dacb8f6	0.08433716
253	0x3dab6b41	0.083700664
254	0xbda80f3c	-0.08206031
255	0x3dade29b	0.08490487

layers.0.WK f4 [4, 128, 32]
0	0x3d00a2d9	0.031405304
1	0xbd06a52b	-0.03287236
2	0x3d06df9d	0.032928098
3	0xbd02270c	-0.03177552
4	0x3d086628	0.03330055
5	0x3d01c7ca	0.031684674
6	0x3d01d0c6	0.031693242
7	0xbd057f4e	-0.03259211
8	0xbd0762ce	-0.033053212
9	0x3d02097f	0.031747337
10	0xbd03e8da	-0.032204486
11	0x3d02dc5b	0.03194843
12	0xbd028abd	-0.031870592
13	0x3d021c1e	0.031765096
14	0xbd089475	-0.033344705
15	0xbd0cacdf	-0.03434455
16	0xbd092665	-0.03348388
17	0xbd0176ca	-0.031607427
18	0xbd05a60c	-0.032629058
19	0xbd0a5a8d	-0.033777762
20	0x3d04881c	0.032356367
21	0x3d043796	0.032279573
22	0x3d058f7a	0.032607533
23	0xbd031ace	-0.032007985
24	0xbd09570f	-0.03353029
25	0x3d000a40	0.031259775
26	0xbd00bcf0	-0.031430185
27	0x3d079323	0.033099305
28	0x3d048827	0.032356407
29	0x3d03e2a6	0.03219857
30	0xbd0402ce	-0.032229237
31	0x3d050da5	0.032483716
32	0xbcc403eb	-0.02392765
33	0x3cd588e4	0.026066251
34	0xbcc4a08f	-0.024002342
35	0x3cc8d1a1	0.024514021
36	0xbcc1f75a	-0.023677517
37	0xbccd50b9	-0.025062906
38	0xbcd0911b	-0.025459817
39	0x3cc8a5f1	0.02449319
40	0x3cc5ae60	0.024131
41	0xbcd89002	-0.026435856
42	0x3cbf96ee	0.023387399
43	0xbcc97d42	-0.02459586
44	0x3ccd6827	0.025074078
45	0xbcc4ff32	-0.024047468
46	0x3cc0cad6	0.02353422
47	0x3cd20f11	0.02564195
48	0x3cceb66a	0.025233466
49	0x3cc441e3	0.023957198
50	0x3cbfbebf	0.023406385
51	0x3cc5805a	0.024109054
52	0xbcd2b2d8	-0.025720045
53	0xbcd0ecad	-0.02550348
54	0xbcc03e73	-0.023467278
55	0x3ccd0e69	0.025031285
56	0x3cc43683	0.023951774
57	0xbcce6a77	-0.02519725
58	0x3cce5276	0.025185805
59	0xbcc88117	-0.024475617
60	0xbcbcdb89	-0.023053901
61	0xbcd10ef0	-0.025519818
62	0x3cc634f6	0.024195176
63	0xbccd3954	-0.02505175
64	0xbd3926cf	-0.045203026
65	0x3d362b89	0.044475112
66	0xbd39eecc	-0.04539375
67	0x3d3ae896	0.045631967
68	0xbd3b1d81	-0.045682434
69	0xbd3814a9	-0.044941578
70	0xbd3bcbd8	-0.045848697
71	0x3d3af358	0.045642227
72	0x3d3f9687	0.046774413
73	0xbd34ccff	-0.044140812
74	0x3d3a323a	0.045458056
75	0xbd38df07	-0.04513457
76	0x3d4384a5	0.04773392
77	0xbd3e21db	-0.046419006
78	0x3d441842	0.047874697
79	0x3d3e39f1	0.046441976
80	0x3d3ab336	0.045581065
81	0x3d3eea03	0.04660989
82	0x3d3be1e4	0.045869723
83	0x3d3bbcef	0.045834478
84	0xbd3c5757	-0.04598173
85	0xbd3e80bf	-0.0465095
86	0xbd3d3684	-0.04619457
87	0x3d40f0b1	0.04710454
88	0x3d3df333	0.04637451
89	0xbd3b9cd9	-0.04580388
90	0x3d3cb8e0	0.046074748
91	0xbd43dac8	-0.047816068
92	0xbd373c8d	-0.04473548
93	0xbd407c39	-0.046993468
94	0x3d3d8d60	0.046277404
95	0xbd3ccd99	-0.04609451
96	0xbda2f2b5	-0.07956449
97	0x3da32698	0.079663455
98	0xbda4bb1b	-0.080435
99	0x3d9e6729	0.0773452
100	0xbda2d885	-0.07951454
101	0xbda29eda	-0.07940455
102	0xbda135f7	-0.07871621
103	0x3da3235d	0.079657294
104	0x3d9f74d6	0.077859566
105	0xbda25d46	-0.07927947
106	0x3da17b57	0.07884853
107	0xbda1910a	-0.07888992
108	0x3da4854d	0.080332376
109	0xbda4a010	-0.08038342
110	0x3da6639e	0.08124469
111	0x3da3468f	0.07972442
112	0x3da66991	0.08125604
113	0x3da50a87	0.080586486
114	0x3da2f9c8	0.07957798
115	0x3da645f4	0.08118811
116	0xbda19d53	-0.07891335
117	0xbda4dfff	-0.08050536
118	0xbd9fec8c	-0.078087896
119	0x3da2e4b1	0.07953776
120	0x3da4255a	0.08014937
121	0xbda89be0	-0.08232856
122	0x3da39b99	0.07988662
123	0xbda4379f	-0.080184214
124	0xbda2ff53	-0.079588555
125	0xbda24714	-0.07923713
126	0x3da69f31	0.08135832
127	0xbda4f6a8	-0.080548584
128	0x3cb980aa	0.02264436
129	0xbca9b96c	-0.020718299
130	0x3ca7e801	0.02049637
131	0xbca9082a	-0.020633776
132	0x3caff5ed	0.021479571
133	0x3ca567ca	0.020191092
134	0x3cb9d955	0.02268664
135	0xbcb10d70	-0.021612853
136	0xbcb239fd	-0.021756167
137	0x3cb1618b	0.021652957
138	0xbca901d7	-0.02063076
139	0x3cb7aa95	0.022420207
140	0xbcae3dfc	-0.02126979
141	0x3caa1603	0.02076245
142	0xbcb0cd87	-0.021582378
143	0xbcaeca5a	-0.021336723
144	0xbcb71b66	-0.022351932
145	0xbcb8b39e	-0.022546586
146	0xbca9a2bd	-0.020707482
147	0xbcb7338d	-0.022363449
148	0x3cb091b5	0.021553854
149	0x3cafe3ca	0.021470923
150	0x3ca0b970	0.019619673
151	0xbcb16b66	-0.021657657
152	0xbcace888	-0.021106973
153	0x3caef12b	0.021355232
154	0xbcb4f655	-0.022090117
155	0x3cb0f7d6	0.021602552
156	0x3cb2eae0	0.021840513
157	0x3cb6b881	0.022304775
158	0xbcab31c1	-0.020897748
159	0x3cb6e405	0.022325525
160	0xbd98dc43	-0.074638866
161	0x3d956f82	0.07296659
162	0xbd9c44da	-0.0763032
163	0x3d9933d9	0.07480592
164	0xbd9da9d0	-0.07698405
165	0xbd9e4490	-0.07727921
166	0xbd99dcf4	-0.075128466
167	0x3d9aebd9	0.075645156
168	0x3d9b58f3	0.07585325
169	0xbd9b342e	-0.07578312
170	0x3d98f21e	0.07468055
171	0xbd9baaf0	-0.07600963
172	0x3d9a51cd	0.075351335
173	0xbd9902ed	-0.07471261
174	0x3d9938eb	0.07481559
175	0x3d9b7f11	0.07592595
176	0x3d9a1f4b	0.075255
177	0x3d96269a	0.073315814
178	0x3d9c8d47	0.07644134
179	0x3d9a9101	0.075471886
180	0xbd9a41a9	-0.07532055
181	0xbd9aff7d	-0.07568262
182	0xbd9b4228	-0.07580978
183	0x3d988864	0.074478894
184	0x3d98ae8a	0.07455166
185	0xbd9c5f2f	-0.07635342
186	0x3d9b6331	0.07587279
187	0xbd9bde4a	-0.07610758
188	0xbd992bc0	-0.07479048
189	0xbd9a4da6	-0.075343415
190	0x3d9cf031	0.076630004
191	0xbd9a5d0f	-0.07537281
192	0xbd648971	-0.055795137
193	0x3d66f9b6	0.056390487
194	0xbd66a914	-0.05631359
195	0x3d6becde	0.05759894
196	0xbd5d5c84	-0.054043308
197	0xbd69070b	-0.056891482
198	0xbd6cac28	-0.05778137
199	0x3d5c7474	0.053821996
200	0x3d680519	0.056645487
201	0xbd655e5b	-0.055998188
202	0x3d6a7977	0.057244744
203	0xbd63f562	-0.055653937
204	0x3d628a3b	0.055307608
205	0xbd67b918	-0.056573004
206	0x3d62e102	0.055390365
207	0x3d6744e1	0.056462172
208	0x3d6173e3	0.05504216
209	0x3d6c2303	0.057650577
210	0x3d65940e	0.0560494
211	0x3d6587be	0.056037657
212	0xbd631d7e	-0.055448048
213	0xbd645683	-0.055746567
214	0xbd63e512	-0.05563838
215	0x3d657863	0.056023013
216	0x3d691082	0.05690051
217	0xbd676656	-0.05649408
218	0x3d6b90be	0.057511084
219	0xbd64b53b	-0.055836897
220	0xbd65712f	-0.056016143
221	0xbd63a66f	-0.055578645
222	0x3d64302e	0.05571001
223	0xbd691551	-0.056905095
224	0xbcb4fdd6	-0.022093695
225	0x3cbd0a79	0.023076283
226	0xbcbbecb4	-0.022940017
227	0x3cb07bcd	0.021543408
228	0xbcc24073	-0.023712372
229	0xbcb63835	-0.022243598
230	0xbcb4f6bc	-0.022090308
231	0x3cbca729	0.023028927
232	0x3cbe84c8	0.023256674
233	0xbcb5fe81	-0.022216083
234	0x3cb0fe4c	0.021605633
235	0xbcbfd752	-0.023418102
236	0x3cb1e821	0.021717133
237	0xbcbd333a	-0.023095716
238	0x3cbb5f67	0.02287264
239	0x3cb288ab	0.021793684
240	0x3cb96fc9	0.022636311
241	0x3cbebd3f	0.023283599
242	0x3cbdc7d5	0.023166576
243	0x3cb45316	0.022012275
244	0xbcb5c3a3	-0.022188013
245	0xbcb6b01b	-0.02230077
246	0xbcb12b43	-0.021627074
247	0x3cad8e45	0.021186003
248	0x3cb718f5	0.022350768
249	0xbcae749d	-0.02129584
250	0x3cacca25	0.021092484
251	0xbcc56c8f	-0.024099616
252	0xbcb74217	-0.022370381
253	0xbcae97c9	-0.021312611
254	0x3cbfdb10	0.023419887
255	0xbcb9d209	-0.02268316

layers.0.WV f4 [4, 128, 32]
0	0x3be4838e	0.0069736904
1	0x3b22152b	0.0024731855
2	0xba04bf18	-0.00050638756
3	0xbc3322e7	-0.010933614
4	0xbc087f86	-0.008331185
5	0x3c976630	0.018481344
6	0x3bc8bab4	0.0061257724
7	0xbbe1dce3	-0.006892787
8	0x3c4524db	0.012032713
9	0xbb768f05	-0.0037621867
10	0x3b9fd331	0.004877471
11	0x3bba048b	0.005676811
12	0x3bd30a74	0.006440455
13	0xbbd9fe05	-0.006652596
14	0xbbab9920	-0.00523676
15	0xbc7dc003	-0.015487674
16	0x3bdaa89f	0.006672933
17	0xba7c5227	-0.0009625279
18	0x3b2a46f7	0.002598224
19	0x3c270f66	0.010196542
20	0x3bbdfa7e	0.0057976833
21	0x3b7a32d9	0.003817728
22	0x3b82ee26	0.0039956747
23	0x3beb506d	0.0071812184
24	0xbbc1c496	-0.0059133274
25	0x3c020c35	0.007937481
26	0xbc0b609e	-0.008506922
27	0x3bf0f455	0.0073533454
28	0x3be902d1	0.0071109314
29	0x3b31dca1	0.0027139562
30	0x3bd4479f	0.0064782645
31	0x399603cd	0.0002861306
32	0x3c296327	0.010338581
33	0xbc981fda	-0.018569876
34	0xbc5e49db	-0.013567413
35	0xbadfb267	-0.0017066718
36	0xbc5a0b2f	-0.01330833
37	0x3c6d7579	0.01449334
38	0x3b8180db	0.0039521283
39	0xbccf29a9	-0.02528842
40	0xbc9c2c07	-0.019063963
41	0xbc93c83e	-0.018039819
42	0x3908d16f	0.00013047991
43	0x3b990ce2	0.004670725
44	0x3b0fb8cc	0.0021930216
45	0xb9e4927c	-0.00043596688
46	0x3c6d67c3	0.014490071
47	0x3ccf8cb2	0.025335643
48	0xba8fbfc3	-0.0010967184
49	0xbc87837f	-0.016542194
50	0x3c4b41d5	0.012405832
51	0xbcd3fcc5	-0.025877366
52	0x3bba6416	0.0056882007
53	0xbc4b1ab5	-0.012396504
54	0x3d000eef	0.03126424
55	0x3c1a6e90	0.009425774
56	0xbbd3f49e	-0.0064683696
57	0x3c7cb8bc	0.0154249035
58	0x3cba2681	0.022723438
59	0xbbcca451	-0.006245174
60	0xbbd0c342	-0.006370933
61	0xbaae7140	-0.0013308898
62	0x3ba73295	0.0051024654
63	0xba5f3fca	-0.000851628
64	0x3b38c4a9	0.002819339
65	0xbc69a566	-0.0142606255
66	0xbbad29fa	-0.005284545
67	0xbc1057f1	-0.008810029
68	0xbbb1c5d5	-0.0054251947
69	0xba80ffe6	-0.0009841889
70	0x3c06915d	0.008213368
71	0x3a662041	0.000877861
72	0x3c5eadeb	0.01359127
73	0xbb467022	-0.0030279239
74	0xbc4d943c	-0.012547549
75	0xbbae4b62	-0.005319045
76	0x3d174ada	0.03693662
77	0x3c14a424	0.009072337
78	0xbc2af134	-0.010433484
79	0x3cbe945e	0.023264106
80	0xbc6349e2	-0.0138725955
81	0xbcc3dad2	-0.023908053
82	0xbc6ae120	-0.014335901
83	0xbcba1b0e	-0.022717979
84	0xbbb3b376	-0.00548404
85	0x3d0f1eb4	0.03494139
86	0xbcdbd8ba	-0.026836742
87	0x3b67793d	0.0035320066
88	0xbaa58af7	-0.0012629916
89	0x3b9e94a2	0.0048394958
90	0xbc603293	-0.013683933
91	0x3ca212e7	0.019784404
92	0xbc704c04	-0.014666561
93	0xbc020276	-0.007935157
94	0x3d669bdb	0.05630098
95	0x3c18f378	0.009335391
96	0x3bf3a559	0.0074354825
97	0xbbe1c19c	-0.006889535
98	0x3ccbe529	0.024889546
99	0x3c69e0b3	0.014274764
100	0x3d054d04	0.03254415
101	0xbc9ff34e	-0.019525196
102	0x3bea664a	0.007153307
103	0xb9ad604c	-0.00033068878
104	0xbb99ea47	-0.0046971175
105	0x3d09a9e1	0.033609275
106	0xbccaa884	-0.024738558
107	0x3b680268	0.0035401825
108	0xbcad4ba8	-0.02115424
109	0x3c2d249f	0.010567813
110	0xbc765ad2	-0.015036302
111	0x3c6a5ee4	0.01430485
112	0xbc4f5960	-0.012655586
113	0xbd1cafe4	-0.03825368
114	0x3ccd2a44	0.025044568
115	0xbd033e93	-0.032042097
116	0xbc5df5fb	-0.013547416
117	0xbd3d075f	-0.046149608
118	0xbc77e067	-0.015129185
119	0x3ccfefb0	0.025382847
120	0xbc2666e9	-0.010156372
121	0x3c484c00	0.012225151
122	0x3d025b67	0.03182545
123	0xbd094dd7	-0.0335215
124	0x3cff4b6a	0.03116389
125	0xbc836a02	-0.01604176
126	0x3d19f690	0.037588656
127	0xbca25029	-0.019813614
128	0xbac04c61	-0.00146712
129	0x3a8ab021	0.0010581055
130	0xbc397318	-0.011318944
131	0x3bc3cd43	0.005975397
132	0x3c70f812	0.014707582
133	0xbb621b3a	-0.0034501092
134	0xbc5ef8b2	-0.013609098
135	0x3c9dfc59	0.019285368
136	0xba913070	-0.0011077058
137	0xbc2c2ad3	-0.010508257
138	0x37f264dd	2.8895616e-05
139	0x3b0da83d	0.002161517
140	0x3bbdd7ae	0.0057935333
141	0x3c053ccc	0.008132171
142	0x3c0384a9	0.008027234
143	0x3cb14580	0.021639585
144	0xbc43ec8c	-0.011958253
145	0x3c47c27f	0.012192368
146	0xba4ad85b	-0.0007737928
147	0x3c7df452	0.015500145
148	0xbb8f877b	-0.004380164
149	0x39103f9f	0.00013756611
150	0xbbf22aef	-0.007390372
151	0xbc1a45ee	-0.009416087
152	0x3c2b4f11	0.010455863
153	0xbc0a1e5e	-0.008430092
154	0x3ba0e6e5	0.0049103373
155	0xbac91c08	-0.0015343437
156	0xbcc54125	-0.024078915
157	0x39cdc8b3	0.0003925018
158	0xbce305c5	-0.027712712
159	0x3b916536	0.004437114
160	0xbbc91c58	-0.006137412
161	0x3b915d8c	0.0044362005
162	0x3a62654e	0.00086363114
163	0x3bcf42a2	0.006325082
164	0x3b77bd95	0.0037802209
165	0x3ad70474	0.0016404525
166	0xbbffa786	-0.007801953
167	0xbbc3b004	-0.0059719104
168	0xbc008d8f	-0.00784625
169	0xbb95c86c	-0.0045710113
170	0xbba8fde8	-0.005157221
171	0x3ae90eec	0.0017780936
172	0xbbe0380b	-0.0068426183
173	0x3b9114a5	0.00442751
174	0xbc072bf0	-0.008250222
175	0x3b8bd279	0.0042670337
176	0xbbaa2566	-0.0051924465
177	0xbc2925e9	-0.01032398
178	0xbbc0827b	-0.0058749295
179	0x380fa4d9	3.4247383e-05
180	0xba1feaa5	-0.00061003334
181	0xbc4d54a1	-0.012532384
182	0xbc269754	-0.010167915
183	0x3c7109ad	0.01471178
184	0xba7549d7	-0.00093570113
185	0xbbcc05ff	-0.0062263007
186	0x3c9d308c	0.019188188
187	0xbc6b1734	-0.014348794
188	0x3bda4fe1	0.0066623543
189	0x3c09fa00	0.008421421
190	0x3b484a1f	0.0030561758
191	0xbbe86d5f	-0.007093116
192	0xbb9c6b48	-0.004773531
193	0xbbd0049a	-0.006348205
194	0x3c5823b9	0.013192111
195	0x3c0766db	0.008264269
196	0xbc628daf	-0.013827725
197	0xbce1c50f	-0.027559785
198	0x3c23708f	0.0099755665
199	0x3c1a463a	0.009416157
200	0xbbd75b58	-0.0065721683
201	0x3d05976e	0.032615118
202	0x3b9dd38c	0.004816478
203	0xbc8dfea7	-0.017333342
204	0x3bb49e18	0.0055120103
205	0xbb6ddc5b	-0.0036294672
206	0xbc9c6dbe	-0.019095298
207	0xbcd6e2c9	-0.026231186
208	0x3b58f1fd	0.003310322
209	0x3cc13d82	0.0235889
210	0xbc985533	-0.018595314
211	0x3cd9d054	0.026588596
212	0xbc4b3986	-0.012403851
213	0x3b84e75e	0.0040559014
214	0x398953bb	0.0002619306
215	0xbca40e75	-0.020026425
216	0x3cdaf75c	0.026729278
217	0xbc295cfa	-0.010337109
218	0x3c186cc3	0.009303275
219	0x3cd517bd	0.026012296
220	0xbc9bee07	-0.019034399
221	0xbbdbce81	-0.006707967
222	0x3b81eaab	0.003964742
223	0x3cb15408	0.021646515
224	0xbc6f8c16	-0.014620801
225	0xbc14b2b1	-0.0090758065
226	0xbb7f5de2	-0.003896587
227	0xbc1b7dc0	-0.00949043
228	0xbc0e54c1	-0.008687199
229	0xbc27676c	-0.010217529
230	0xbc867f5f	-0.016418157
231	0x3d1f0f6b	0.038833063
232	0x3a9d3f75	0.0011997061
233	0xbc00b990	-0.007856742
234	0x3c9e12d5	0.01929609
235	0x3cbc46db	0.022983005
236	0xbcc4a1fc	-0.024003021
237	0xbb734192	-0.003711794
238	0x3c5d5a7e	0.013510345
239	0x3c3ccb27	0.011523045
240	0x3bc99d7d	0.0061528073
241	0x3d06794f	0.032830533
242	0xbc3596fa	-0.011083359
243	0xbc960c45	-0.018316397
244	0x38896193	6.550844e-05
245	0xbc97746f	-0.018488137
246	0x3c5f5d5d	0.013633099
247	0xbc25a226	-0.01010946
248	0x3ccee769	0.02525683
249	0xbb39b351	-0.002833564
250	0xbb654182	-0.0034981673
251	0x3a6d0d5b	0.00090428226
252	0xbd176918	-0.03696546
253	0x3c5d4b27	0.013506687
254	0xbc4c6079	-0.012474173
255	0x3c2b6f47	0.010463542

layers.0.WO f4 [4, 32, 128]
0	0xbc66e78a	-0.014093289
1	0x3a7d348c	0.0009659014
2	0x3c3aa5f2	0.0113921035
3	0xbb46e50a	-0.003034892
4	0x3b76c0d0	0.0037651546
5	0x398f7d78	0.00027368567
6	0x3c168918	0.009187959
7	0x3c2b0c95	0.0104400115
8	0x3b461ce1	0.0030229616
9	0xbbc98058	-0.006149333
10	0xbb9ff53b	-0.0048815287
11	0xbbc66350	-0.0060543194
12	0xbc03216f	-0.008003577
13	0x3b1bf498	0.0023796912
14	0xbbacb06f	-0.005270056
15	0xbc8bf071	-0.017082425
16	0xbbd44022	-0.006477372
17	0xbafca1f8	-0.0019274345
18	0x3c124033	0.008926439
19	0x3a0cc8a9	0.0005370477
20	0x3c39873f	0.011323749
21	0x3bba55c9	0.005686496
22	0xbb9ab041	-0.004720718
23	0x3a6b53a3	0.00089770014
24	0xbba4bef0	-0.0050276443
25	0xbba62d76	-0.0050713373
26	0x3bd153b4	0.006388152
27	0x3bea9dcc	0.007159924
28	0x3b81da76	0.00396281
29	0xbba08d96	-0.004899691
30	0xbb997fbb	-0.004684416
31	0xbb1c0634	-0.0023807408
32	0x3c630ea5	0.013858472
33	0x3b5bd33c	0.0033542654
34	0x3c39fe22	0.011352094
35	0xbb4455be	-0.0029958333
36	0x3c979262	0.018502418
37	0xbc48746b	-0.012234787
38	0xbb082da1	-0.002077915
39	0xbc3263c9	-0.010888048
40	0x3b8765ec	0.004132023
41	0x3bf21e11	0.007388838
42	0xbb334f2f	-0.002736043
43	0x3b4ce7f2	0.003126618
44	0x3a186855	0.00058138865
45	0xbc26b540	-0.010175049
46	0x3a6139dc	0.00085916906
47	0xbca660a9	-0.020309763
48	0x3c9dcc5e	0.019262489
49	0x3b83715e	0.004011317
50	0xbb278a35	-0.0025564556
51	0xbb658c69	-0.0035026318
52	0xbc60bd20	-0.013716966
53	0x3c108ba7	0.008822358
54	0x3bcaa377	0.0061840373
55	0x3c0eb2ac	0.008709591
56	0xbc15c1e0	-0.009140462
57	0xbb85cc68	-0.004083205
58	0x3bdb2566	0.006687808
59	0xbb22b6d6	-0.0024828217
60	0xbae292b5	-0.0017286154
61	0xbc321493	-0.010869163
62	0x3a0c2915	0.0005346698
63	0x3c2ff3fb	0.010739322
64	0x3b337140	0.0027380735
65	0xbb80e7fb	-0.003933904
66	0x39ea573a	0.00044696947
67	0x3b3c5d04	0.0028741965
68	0xbb39d8af	-0.0028357913
69	0x3c018c8a	0.007907042
70	0xb9659fc3	-0.00021898658
71	0xb8f3f3bf	-0.00011632544
72	0x3c0b889a	0.008516455
73	0x3c3fc4d8	0.011704646
74	0xbc41cdbb	-0.011828835
75	0x3c28a947	0.010294265
76	0xbb8e01fc	-0.0043337326
77	0xbc85e6c8	-0.016345397
78	0x39a77531	0.00031940037
79	0x3c1a673d	0.009424028
80	0xba4e5413	-0.00078708044
81	0x3c4fc525	0.01268128
82	0xb92ad000	-0.0001628995
83	0x3ca1ec81	0.019766094
84	0x3b012aee	0.0019709426
85	0x3c051f46	0.008125132
86	0x3c50f46e	0.012753589
87	0x3aef58c1	0.0018260704
88	0xbb7c4426	-0.0038492768
89	0xbc27a96d	-0.010233265
90	0xbc3c0126	-0.011474883
91	0xbbe4297b	-0.0069629527
92	0x3c428db1	0.011874602
93	0x3b580cac	0.0032966537
94	0xbc184c69	-0.009295561
95	0xbb8f08c6	-0.0043650595
96	0x3cbf7bea	0.023374517
97	0xbc307812	-0.0107708145
98	0x3bd756cd	0.0065716268
99	0x3bf90246	0.007599148
100	0x3c232b22	0.009959014
101	0x3a380b90	0.0007020766
102	0xbaaf12b2	-0.0013357012
103	0xbc4762c3	-0.012169543
104	0xbc6a7072	-0.014309036
105	0xbc239943	-0.009985271
106	0x3c14cba4	0.009081755
107	0xbb4a9779	-0.0030913039
108	0xbc7e6b34	-0.015528489
109	0xbbf334de	-0.0074220737
110	0x3c0ebed8	0.008712493
111	0xbc359d82	-0.011084916
112	0xbb73820f	-0.0037156378
113	0x3c3428ad	0.010996026
114	0xba37be7b	-0.000700928
115	0xb828dc60	-4.025956e-05
116	0x3b8151c4	0.003946515
117	0xbba98f3a	-0.0051745446
118	0x3bdb0dcf	0.0066849957
119	0xbb559036	-0.0032587177
120	0x3c3fd19b	0.011707689
121	0x3b185946	0.002324657
122	0x3ba2d62b	0.0049693785
123	0x3c054e9d	0.008136419
124	0x39b24a96	0.00034006377
125	0xbb9b99b0	-0.0047485456
126	0x3ca19580	0.019724607
127	0xbc6bb520	-0.014386445
128	0x39f686b5	0.0004702114
129	0xbb2b9efe	-0.0026187296
130	0xbc0c0758	-0.008546673
131	0xbba3554a	-0.0049845325
132	0xbc00b4d2	-0.007855611
133	0x3b26b2ce	0.0025436166
134	0xbb3f73fd	-0.0029213422
135	0xbb9e66cd	-0.004834032
136	0xbbdddbbd	-0.0067705796
137	0x3c78b979	0.015180939
138	0x3bdd378f	0.006751008
139	0x3b87c5f5	0.0041434714
140	0x3b1d9ed1	0.002405096
141	0xbbd68a8b	-0.0065472773
142	0xbc02cb5b	-0.007983054
143	0xba3be879	-0.0007168125
144	0x3b5fcd1e	0.003414936
145	0xbb1b3a54	-0.002368589
146	0xbb562eee	-0.003268178
147	0xba6ce32f	-0.00090365385
148	0x3b4db4a1	0.003138818
149	0x3c412e22	0.011790784
150	0xbc5daff3	-0.013530719
151	0x3af4ff36	0.0018691781
152	0xbae1ccfe	-0.001722723
153	0x3b564705	0.003269614
154	0xbb3584ad	-0.002769749
155	0xbb8e2990	-0.0043384507
156	0xbb4863d9	-0.0030577092
157	0xbc0f0694	-0.008729596
158	0x3ac4ca28	0.001501386
159	0x3b0dd818	0.0021643694
160	0x3c1a497d	0.009416935
161	0x381ef947	3.7902293e-05
162	0xbc33cfc9	-0.010974833
163	0xba6c2f43	-0.0009009728
164	0xbcb6ef2c	-0.022330843
165	0x3ad556d1	0.0016276484
166	0xbbefd785	-0.007319393
167	0x3c348eca	0.011020372
168	0xbc48cc84	-0.012255792
169	0xbc34d9fa	-0.011038298
170	0xbb0f358b	-0.0021851982
171	0x3c8cae09	0.01717283
172	0xbb064e6d	-0.0020493523
173	0x3c00e26e	0.007866485
174	0x3c0f5c8e	0.008750094
175	0xbc14f908	-0.009092577
176	0x3bb66c36	0.005567099
177	0x3c3d77d6	0.011564216
178	0xbc218ed2	-0.009860711
179	0xba196e06	-0.00058528816
180	0x3a259904	0.00063170516
181	0xbb8588e6	-0.0040751575
182	0x39c048f0	0.00036675436
183	0xbba00963	-0.0048839315
184	0x3c001497	0.007817409
185	0xbaf28dd3	-0.0018505402
186	0xbafc1856	-0.0019233327
187	0x3c38f9fa	0.011290068
188	0xbc2eb97a	-0.010664338
189	0x3c129398	0.008946322
190	0xbc0515a9	-0.00812284
191	0xbc6255d5	-0.013814409
192	0xbc3ef3f8	-0.011654846
193	0x3ba6e7c2	0.0050935457
194	0x3b8b4829	0.0042505455
195	0xbb7691b6	-0.0037623472
196	0xbba2f162	-0.0049726227
197	0xbc09a6ba	-0.008401567
198	0xbb6975e1	-0.003562324
199	0x3b938644	0.0045020897
200	0x3c53bc9c	0.012923386
201	0xbbdefb78	-0.0068048798
202	0xbbbb3978	-0.005713638
203	0x3c41fc02	0.0118398685
204	0x3c7dba47	0.0154863065
205	0xbc601020	-0.0136757195
206	0x398fadc2	0.00027404545
207	0x3c1baa6d	0.009501082
208	0x3c425d98	0.011863135
209	0x3be08c98	0.0068526976
210	0xbac070aa	-0.0014682014
211	0xbaea5755	-0.001787881
212	0x3c11c949	0.008898088
213	0xbc2ef9d1	-0.010679678
214	0x3c419daf	0.01181738
215	0xbb4cbbda	-0.0031239898
216	0x3babc6a7	0.005242187
217	0x39cb9b3c	0.00038834836
218	0x3bb77b61	0.0055994247
219	0x3a903214	0.0011001253
220	0xbc063d33	-0.008193302
221	0x3c2d63ac	0.010582846
222	0x3ba8398d	0.0051338137
223	0x3b9b4cb3	0.004739368
224	0xbb1561f2	-0.0022793976
225	0x3c2cc0a3	0.010543975
226	0xbb3f2187	-0.002916427
227	0xbbc8046e	-0.0061040437
228	0xbc3b49cd	-0.01143117
229	0x3c7f6750	0.015588596
230	0xbc8abdf8	-0.016936287
231	0xbbbf8bf9	-0.0058455435
232	0xbace0dd1	-0.001572067
233	0x3c1c4298	0.009537362
234	0x3c12feee	0.008971913
235	0x3ba53246	0.0050413935
236	0x3a7d6a88	0.00096670585
237	0x3b928f2b	0.0044726334
238	0x3bc6c275	0.0060656616
239	0x3c311fa5	0.010810767
240	0x3b15cae6	0.0022856533
241	0xbc867032	-0.01641092
242	0x3c2363a0	0.009972483
243	0x3aac0a85	0.0013125694
244	0xbb7ca8d3	-0.0038552776
245	0x3c444e06	0.011981493
246	0xbb489067	-0.0030603649
247	0x3aa600be	0.0012665016
248	0xbb6d72ea	-0.0036231824
249	0x3c0dde0f	0.0086589
250	0x3aa7757e	0.0012776104
251	0xbc3f0d77	-0.011660925
252	0x3c223cfb	0.009902234
253	0x3b93395f	0.004492923
254	0xbbb031ae	-0.005377016
255	0xbb6ff99c	-0.0036617285

layers.0.mlp.0.weight f4 [512, 128]
0	0x3c4e3ba3	0.012587461
1	0x39b1862f	0.00033860045
2	0xbb54773d	-0.0032419704
3	0x3bf16f71	0.007368021
4	0xbb8a0c41	-0.0042128866
5	0xbbce0352	-0.006287017
6	0xbb08dc95	-0.002088343
7	0x3a3c83ac	0.00071912515
8	0xba4d8ee9	-0.00078414247
9	0x3b24f12f	0.002516817
10	0xbbfb7afd	-0.0076745735
11	0x3b073c36	0.0020635254
12	0xbbe29a52	-0.006915369
13	0x3bce9190	0.0063039735
14	0xbc45ac8d	-0.012065065
15	0x3c0c9f1c	0.0085828565
16	0x3bd849ef	0.0066006104
17	0x3c13bbde	0.009016959
18	0xbbbb2b19	-0.0057119248
19	0xbc0aa662	-0.00846252
20	0x3adb0f84	0.0016712998
21	0xbaccfa56	-0.0015638571
22	0xbb4c1c31	-0.0031144733
23	0x3c4868bb	0.012232001
24	0x3b8350b5	0.0040074238
25	0x3c86cc60	0.016454875
26	0x3bd9b8d0	0.006644346
27	0xbb7befa6	-0.0038442402
28	0x3b7c44a2	0.0038493057
29	0x3a5f2d1f	0.00085134985
30	0xbab2477b	-0.0013601625
31	0x3c80dc19	0.01572995
32	0xbb9964cc	-0.0046812054
33	0x3b5aaf28	0.0033368561
34	0xbb58eaae	-0.0033098864
35	0xbb2cf7ad	-0.0026392743
36	0x3aa15b71	0.0012310577
37	0x3b3093c1	0.0026943537
38	0x3bd12e83	0.0063837185
39	0x3a1ecb22	0.0006057491
40	0x3b539b07	0.0032288448
41	0xbc72d27f	-0.014820694
42	0x3c98e15c	0.018662147
43	0x3b9f229a	0.0048564197
44	0xbc99b12c	-0.01876124
45	0xbc88f705	-0.01671935
46	0x3ced99d9	0.029004024
47	0x3be4a516	0.0069776876
48	0x3b7d37f4	0.0038638087
49	0x3ba54d19	0.005044591
50	0x3ba944f0	0.0051656887
51	0xbbdb1473	-0.0066857873
52	0x3b09481a	0.0020947517
53	0xba98b3e3	-0.001165029
54	0xbadcd336	-0.0016847614
55	0x3ae95d02	0.0017804208
56	0xbb0f6b1f	-0.0021883918
57	0x3b841fe8	0.004032124
58	0xbc7c7e5d	-0.015410987
59	0x3c4f6c3f	0.012660085
60	0x3b0aacdf	0.0021160168
61	0xbb3d4903	-0.002888263
62	0x3b88f712	0.0041798437
63	0x3cb3f210	0.02196601
64	0xbc745313	-0.014912385
65	0xbc00ab51	-0.007853345
66	0xbb71c087	-0.0036888437
67	0x3aca549e	0.0015436595
68	0xbad037e7	-0.0015885801
69	0xbb8ce5e6	-0.004299867
70	0xbb86fb6b	-0.004119327
71	0xbb2575c7	-0.0025247203
72	0xbc36fef3	-0.011169183
73	0x3b819e21	0.003955618
74	0x3c2aff1c	0.010436799
75	0xba8e346d	-0.0010849364
76	0x3b1f8cf8	0.0024345499
77	0xbc036d23	-0.008021626
78	0xbb56efd9	-0.003279677
79	0x3bb65ae7	0.0055650356
80	0x3c0d5c78	0.008628003
81	0xbbd528cb	-0.006505107
82	0x3b857462	0.004072712
83	0x3b43c39e	0.0029871236
84	0x3c050769	0.0081194425
85	0xba733abe	-0.00092784676
86	0x3c8ea2b8	0.017411575
87	0x3b1d315b	0.0023985717
88	0xbae8f4e3	-0.0017773177
89	0xbb84188e	-0.0040312475
90	0xbbe5239a	-0.0069927694
91	0xbb8ccd22	-0.0042969147
92	0x3acd2bb1	0.001565328
93	0x3c0874eb	0.008328657
94	0xbb8051b8	-0.0039159916
95	0xba7f7c1e	-0.0009745973
96	0xbbb2f7ca	-0.0054616677
97	0x3ca39ef3	0.019973254
98	0xbc5b9c51	-0.013403968
99	0xbb0f7b04	-0.0021893391
100	0xbc060f30	-0.008182332
101	0xbc17f449	-0.009274551
102	0xbc02252a	-0.007943431
103	0x3c23317e	0.00996053
104	0xbc70a24b	-0.014687131
105	0x3c7372d0	0.014858916
106	0x3abf5ae2	0.0014599229
107	0x3c97e52c	0.018541895
108	0x3a0ba286	0.0005326647
109	0xbbc6f874	-0.0060720984
110	0x3c0b1cfc	0.008490797
111	0x3b2f429e	0.0026742588
112	0x3be2563f	0.006907254
113	0xbcf92ece	-0.030417826
114	0x3bbded4e	0.005796111
115	0x3bc4d2d0	0.006006576
116	0x3b1440f6	0.0022621728
117	0xbb0a24c7	-0.002107905
118	0xbc137a7d	-0.009001371
119	0x3b437382	0.0029823487
120	0xb9c1e4aa	-0.00036982197
121	0xbae9e748	-0.0017845416
122	0xbc3a0621	-0.011354
123	0xbc123988	-0.008924849
124	0x3c7e4dd6	0.015521487
125	0x397bb4c4	0.00024004566
126	0x3b2ab77d	0.002604931
127	0x3bfaafd2	0.007650354
128	0xbc00f4bf	-0.007870852
129	0x3c6b25eb	0.014352302
130	0xbc1b55a8	-0.009480871
131	0x3a409cb1	0.00073475676
132	0xbd208aff	-0.039195057
133	0x3b0ebd89	0.0021780452
134	0xbcdeb2c0	-0.027184844
135	0x3c0a46f7	0.008439771
136	0xbc68ec7d	-0.014216539
137	0xbccbf0a5	-0.024895022
138	0x3bcee34a	0.006313716
139	0xbc2a6f04	-0.010402445
140	0x3c111e53	0.0088573275
141	0xbb22258a	-0.0024741613
142	0xbd16124a	-0.036638536
143	0xbbe95d62	-0.007121728
144	0xb9fb8d09	-0.0004797953
145	0x3bdd2d61	0.0067497944
146	0x3c3f6fa9	0.011684337
147	0xbcf072a1	-0.029351534
148	0x3cffe837	0.031238658
149	0xbb6f6c7e	-0.0036533172
150	0x3cd49d9b	0.025954058
151	0x3bb1c2c9	0.0054248315
152	0xbcde4750	-0.027133614
153	0x3d5269c4	0.051370397
154	0x3ac378b5	0.0014913293
155	0xbaaa5516	-0.0012995328
156	0x3bea2bba	0.007146326
157	0x3c7df87f	0.015501141
158	0xbbe21a10	-0.0069000795
159	0xbc3a7f71	-0.011382923
160	0xbc6d4941	-0.014482797
161	0xbc62445e	-0.013810245
162	0xbb91e31f	-0.004452124
163	0xbccf9011	-0.02533725
164	0x3d3c2963	0.045937907
165	0x3bf1e83e	0.0073824218
166	0x3cdd1227	0.026986195
167	0x3be1ea1b	0.0068943626
168	0xbb23561e	-0.0024923156
169	0x3d54ebc4	0.051982656
170	0x3ba7610a	0.0051080035
171	0x3c08a029	0.008338966
172	0xbc52b9c8	-0.0128616765
173	0xbc9a59b6	-0.018841606
174	0xbb5af467	-0.0033409835
175	0xbc847e13	-0.016173398
176	0x3c979469	0.018503385
177	0xbd045d46	-0.032315515
178	0x3cfd53dd	0.030923778
179	0xbc88696f	-0.016651837
180	0x3c988dd7	0.018622322
181	0xbd0434cf	-0.032276925
182	0xba73291b	-0.00092758395
183	0xbb613f26	-0.0034369915
184	0x3c9e6809	0.019336717
185	0x3b6504b3	0.0034945428
186	0x3d14cfd7	0.036331024
187	0x3d2fd1bf	0.04292464
188	0x3c48e89f	0.012262492
189	0xb95bf4a1	-0.00020976599
190	0x3c1f3c3e	0.009718953
191	0x3a223643	0.0006187895
192	0xba3b00d4	-0.0007133607
193	0x3acddd17	0.0015706149
194	0xbd572d61	-0.05253351
195	0x3bdaec40	0.006680995
196	0x3bd6d2d5	0.006555895
197	0xbd59e9bb	-0.05320142
198	0x3c4b29a5	0.012400066
199	0x3c87e68a	0.016589422
200	0x3cc82026	0.024429392
201	0xbc3fecdc	-0.0117141865
202	0x3d6b749a	0.057484247
203	0xbd22d5a5	-0.03975453
204	0x3a0b76c3	0.0005320126
205	0x3b79c779	0.003811328
206	0xbc6472ac	-0.0139433555
207	0xbcc83031	-0.024437042
208	0x3ce611ce	0.028084662
209	0xbd16633a	-0.036715724
210	0x3b253ead	0.002521436
211	0x3c79d1cd	0.015247774
212	0x3cdbf38a	0.026849527
213	0x3b0f34c7	0.0021851526
214	0x3ba9f0b5	0.005186165
215	0x3c231cd5	0.009955605
216	0x3a52b596	0.00080379227
217	0xbb8d514d	-0.0043126703
218	0x3d0fb900	0.03508854
219	0x3c92dd77	0.017927868
220	0xbbdb846d	-0.006699136
221	0xbcf625e8	-0.030047372
222	0x3bf90096	0.007598947
223	0x3b87dbe3	0.0041460856
224	0xbc8b0eea	-0.016974885
225	0xbd10b14a	-0.035325326
226	0xbc48989b	-0.012243415
227	0xbc9053fc	-0.017618172
228	0x3cab5c93	0.020918166
229	0x3c0cb846	0.008588856
230	0xbcc35877	-0.023845894
231	0xbc644e97	-0.013934753
232	0xbd40c3f1	-0.047061864
233	0xbcc2fe28	-0.023802832
234	0x3a5da0d9	0.0008454449
235	0x3d0d3316	0.034472547
236	0xbc7dd3ee	-0.0154924225
237	0x3b202eb9	0.0024441911
238	0xbd036ffb	-0.032089215
239	0xbc800e44	-0.015631802
240	0xbc07c582	-0.008286836
241	0xbd255380	-0.040362835
242	0xbca38931	-0.019962879
243	0xbb214092	-0.0024605137
244	0x3c5c3f70	0.013442859
245	0xbce76f8a	-0.028251428
246	0xbc80a09d	-0.015701586
247	0x3c5e1417	0.0135545945
248	0x3b62d280	0.003461033
249	0xbca7fee1	-0.020507278
250	0x3c6909ef	0.01422356
251	0x3cc873e8	0.02446933
252	0x3d1de843	0.03855158
253	0x3bc26b56	0.0059332056
254	0x3d048547	0.032353666
255	0x3b815ef5	0.0039480873
